…
t/main', 'num_proposals': 3, 'rewards': [0, 0.5, 1.0]}, 'model': {'name': 'MainModel', 'config': {'frames_input_size': 500, 'words_input_size': 300, 'hidden_size': 256, 'DualTransformer': {'d_model': 256, 'num_heads': 8, 'num_decoder_layers1': 3, 'num_decoder_layers2': 3, 'dropout': 0.1}}}}
prop width [0.125 0.25  0.375 0.5   0.625 0.75  0.875 1.   ]
prop width [0.125 0.25  0.375 0.5   0.625 0.75  0.875 1.   ]
prop width [0.125 0.25  0.375 0.5   0.625 0.75  0.875 1.   ]
2020-02-14 11:19:11,519 - train: 37421 samples, test: 17031 samples
2020-02-14 11:19:11,520 - GPU: [0]
MainModel(
  (frame_fc): Linear(in_features=500, out_features=256, bias=True)
  (word_fc): Linear(in_features=300, out_features=256, bias=True)
  (trans): DualTransformer(
    (decoder1): TransformerDecoder(
      (decoder_layers): ModuleList(
        (0): TransformerDecoderLayer(
          (self_attn): MultiheadAttention(
            (out_proj): Linear(in_features=256, out_features=256, bias=True)
          )
          (self_attn_layer_norm): LayerNorm((256,), eps=1e-05, elementwise_affine=True)
          (encoder_attn): MultiheadAttention(
            (out_proj): Linear(in_features=256, out_features=256, bias=True)
          )
          (encoder_attn_layer_norm): LayerNorm((256,), eps=1e-05, elementwise_affine=True)
          (fc1): Linear(in_features=256, out_features=512, bias=True)
          (fc2): Linear(in_features=512, out_features=256, bias=True)
          (final_layer_norm): LayerNorm((256,), eps=1e-05, elementwise_affine=True)
        )
        (1): TransformerDecoderLayer(
          (self_attn): MultiheadAttention(
            (out_proj): Linear(in_features=256, out_features=256, bias=True)
          )
          (self_attn_layer_norm): LayerNorm((256,), eps=1e-05, elementwise_affine=True)
          (encoder_attn): MultiheadAttention(
            (out_proj): Linear(in_features=256, out_features=256, bias=True)
          )
          (encoder_attn_layer_norm): LayerNorm((256,), eps=1e-05, elementwise_affine=True)
          (fc1): Linear(in_features=256, out_features=512, bias=True)
          (fc2): Linear(in_features=512, out_features=256, bias=True)
          (final_layer_norm): LayerNorm((256,), eps=1e-05, elementwise_affine=True)
        )
        (2): TransformerDecoderLayer(
          (self_attn): MultiheadAttention(
            (out_proj): Linear(in_features=256, out_features=256, bias=True)
          )
          (self_attn_layer_norm): LayerNorm((256,), eps=1e-05, elementwise_affine=True)
          (encoder_attn): MultiheadAttention(
            (out_proj): Linear(in_features=256, out_features=256, bias=True)
          )
          (encoder_attn_layer_norm): LayerNorm((256,), eps=1e-05, elementwise_affine=True)
          (fc1): Linear(in_features=256, out_features=512, bias=True)
          (fc2): Linear(in_features=512, out_features=256, bias=True)
          (final_layer_norm): LayerNorm((256,), eps=1e-05, elementwise_affine=True)
        )
      )
    )
    (decoder2): TransformerDecoder(
      (decoder_layers): ModuleList(
        (0): TransformerDecoderLayer(
          (self_attn): MultiheadAttention(
            (out_proj): Linear(in_features=256, out_features=256, bias=True)
          )
          (self_attn_layer_norm): LayerNorm((256,), eps=1e-05, elementwise_affine=True)
          (encoder_attn): MultiheadAttention(
            (out_proj): Linear(in_features=256, out_features=256, bias=True)
          )
          (encoder_attn_layer_norm): LayerNorm((256,), eps=1e-05, elementwise_affine=True)
          (fc1): Linear(in_features=256, out_features=512, bias=True)
          (fc2): Linear(in_features=512, out_features=256, bias=True)
          (final_layer_norm): LayerNorm((256,), eps=1e-05, elementwise_affine=True)
        )
        (1): TransformerDecoderLayer(
          (self_attn): MultiheadAttention(
            (out_proj): Linear(in_features=256, out_features=256, bias=True)
          )
          (self_attn_layer_norm): LayerNorm((256,), eps=1e-05, elementwise_affine=True)
          (encoder_attn): MultiheadAttention(
            (out_proj): Linear(in_features=256, out_features=256, bias=True)
          )
          (encoder_attn_layer_norm): LayerNorm((256,), eps=1e-05, elementwise_affine=True)
          (fc1): Linear(in_features=256, out_features=512, bias=True)
          (fc2): Linear(in_features=512, out_features=256, bias=True)
          (final_layer_norm): LayerNorm((256,), eps=1e-05, elementwise_affine=True)
        )
        (2): TransformerDecoderLayer(
          (self_attn): MultiheadAttention(
            (out_proj): Linear(in_features=256, out_features=256, bias=True)
          )
          (self_attn_layer_norm): LayerNorm((256,), eps=1e-05, elementwise_affine=True)
          (encoder_attn): MultiheadAttention(
            (out_proj): Linear(in_features=256, out_features=256, bias=True)
          )
          (encoder_attn_layer_norm): LayerNorm((256,), eps=1e-05, elementwise_affine=True)
          (fc1): Linear(in_features=256, out_features=512, bias=True)
          (fc2): Linear(in_features=512, out_features=256, bias=True)
          (final_layer_norm): LayerNorm((256,), eps=1e-05, elementwise_affine=True)
        )
      )
    )
  )
  (fc_props): Linear(in_features=256, out_features=8, bias=True)
  (fc_comp): Linear(in_features=256, out_features=8001, bias=True)
)
2020-02-14 11:19:19,674 - Start Epoch 1
2020-02-14 11:19:59,220 - Epoch 1, Batch 50, lr = 0.00008, nll = 8.5018, neg_nll = 0.0000, prop = 0.5522, 0.791 seconds/batch
2020-02-14 11:20:34,906 - Epoch 1, Batch 100, lr = 0.00015, nll = 6.9536, neg_nll = 0.0000, prop = 0.5507, 0.752 seconds/batch
2020-02-14 11:21:10,779 - Epoch 1, Batch 150, lr = 0.00023, nll = 5.8909, neg_nll = 0.0000, prop = 0.5499, 0.741 seconds/batch
…
